mymodel.pt (torch, 29158 bytes, 14 tensors)

weight f4 [64, 11]
0	0x3e4298f6	0.19003662
1	0xbed17146	-0.40906733
2	0xbe808cc4	-0.25107396
3	0xbe08da48	-0.13364518
4	0xbe0620fd	-0.13098522
5	0x3e7a8955	0.2446645
6	0xbe449fe0	-0.19201612
7	0x3e95b89e	0.29242414
8	0x3e8944e0	0.2681036
9	0x3d92d514	0.07169548
10	0xbe73f616	-0.23824343
11	0xbdc5bb69	-0.09654886
12	0x3e26a2d6	0.16273054
13	0x3eb2ba53	0.3490778
14	0xbe8acc4a	-0.27108985
15	0xbdacf75b	-0.08445617
16	0x3d84ad7a	0.064784005
17	0x3d178a81	0.036997322
18	0xbe69a4c9	-0.22816767
19	0xbe51b164	-0.20477825
20	0xbeb9132e	-0.36147445
21	0x3d84bc7f	0.06481265
22	0xbe8ba5da	-0.27274972
23	0xbd5406de	-0.05176436
24	0xbeb3f048	-0.35144258
25	0xbcfe04fc	-0.031008236
26	0x3b89c0ff	0.004203915
27	0x3d41c66c	0.04730837
28	0x3e6d04f9	0.23146428
29	0xbcf476a9	-0.029841738
30	0xbd6afe51	-0.05737144
31	0xbe1581cf	-0.146003
32	0xbe6b2717	-0.2296413
33	0xbe665c6d	-0.22496195
34	0xbe21c926	-0.15799388
35	0xbe440f9e	-0.19146582
36	0xbe343c71	-0.17601182
37	0x3e12743a	0.1430215
38	0xbe18fe57	-0.14940773
39	0x3ecd14c4	0.40054905
40	0xbda23bae	-0.07921539
41	0x3c031b5d	0.008002129
42	0xbe1f269f	-0.15542077
43	0xbe5830bb	-0.21112339
44	0xbd3bf484	-0.045887485
45	0x3e7107b1	0.2353809
46	0x3db0eb7a	0.086386636
47	0xbe18534e	-0.14875528
48	0xbe9610ae	-0.293096
49	0x3e3adbaa	0.18247858
50	0x3e28592f	0.16440271
51	0x3e74a2fd	0.238903
52	0xbda0aaaf	-0.07845055
53	0xbd5ca165	-0.053864855
54	0x3ea5acf7	0.32358524
55	0x3e252b71	0.16129853
56	0x3ea53d98	0.32273555
57	0x3e50ad94	0.20378715
58	0xbe31aaba	-0.17350283
59	0x3e9c2176	0.3049428
60	0xbe0bcec0	-0.13653088
61	0xbdc7cbe7	-0.09755688
62	0x3e6ac9bf	0.22928523
63	0x3e136da8	0.143973
64	0xbdbb8fd4	-0.091582924
65	0xbde3cd76	-0.11123173
66	0xbe701473	-0.23445301
67	0x3e92a29f	0.28639695
68	0x3ba22ace	0.0049489504
69	0x3e3402fb	0.17579262
70	0x3d9f3654	0.07774034
71	0x3e5c9d3d	0.21544357
72	0x3e040561	0.12892677
73	0x3d89611e	0.06707977
74	0x3e2c6559	0.16835536
75	0xbdf2b89d	-0.118516184
76	0xbe173ad5	-0.14768536
77	0x3ec64797	0.38726494
78	0x3e614219	0.2199787
79	0x3e2f93b6	0.17146191
80	0x3eaa8bc7	0.33309767
81	0xbe9048d4	-0.28180563
82	0x3ea0104d	0.31262437
83	0x3e26456c	0.1623742
84	0xbd9db98f	-0.07701408
85	0x3e25ac4d	0.16179009
86	0xbe5d5032	-0.21612623
87	0x3e8309e9	0.25593498
88	0x3d6b0a8e	0.057383113
89	0x3e8389a5	0.25690952
90	0xbcccc4ac	-0.024996124
91	0xbdbb0949	-0.091326304
92	0xbd71f947	-0.05907562
93	0x3e379f4d	0.17931862
94	0xbe098b30	-0.13432002
95	0x3e9e5cd2	0.3093019
96	0xbdfd82e1	-0.12378479
97	0x3cd42ec6	0.02590121
98	0xbd4e0389	-0.05029634
99	0xbc303c83	-0.010756615
100	0x3e48c749	0.19607271
101	0x3daeef03	0.085416816
102	0xbe43d9be	-0.19126031
103	0x3e84c8e0	0.25934505
104	0x3e4c3b88	0.19944584
105	0xbe6d613a	-0.2318162
106	0xbec4bb3d	-0.384241
107	0x3c367f70	0.011138782
108	0x3e0979f5	0.13425429
109	0x3e39370b	0.18087403
110	0x3e5ee344	0.21766382
111	0x3ddc32cf	0.107518785
112	0x3c1f29b5	0.009714534
113	0xbddec814	-0.108780056
114	0xbd99e510	-0.07514393
115	0xbec59b83	-0.3859521
116	0xbe74d4c9	-0.23909296
117	0x3d106f29	0.03526226
118	0xbd37c73f	-0.04486775
119	0xbd163b8c	-0.036677882
120	0xbe267cbb	-0.16258518
121	0xbd0bcfbb	-0.034133654
122	0xbed3125b	-0.41224942
123	0xbe09ce8d	-0.13457699
124	0x3e4d7630	0.20064616
125	0xbcad2541	-0.021135928
126	0x3d8c5535	0.068521895
127	0x3cadf3b1	0.021234365
128	0xbe1eefb6	-0.1552113
129	0xbdc634c2	-0.096780315
130	0x3e5c2b79	0.21500959
131	0xbeb5b2e7	-0.35488054
132	0xbe58a9ff	-0.21158598
133	0x3eb3c81d	0.35113612
134	0x3e746f42	0.23870566
135	0x3e82e1e8	0.25562978
136	0xbd9b028d	-0.07568846
137	0xbdf863a1	-0.12128378
138	0x3d78d9ea	0.060754694
139	0xbbc9344c	-0.0061402675
140	0xbb71bc79	-0.003688602
141	0xbe282747	-0.16421233
142	0xbdfbc4a2	-0.12293364
143	0x3d46e4c2	0.048558004
144	0xbebbca4b	-0.36677775
145	0xbdde7751	-0.108626015
146	0x3e75cf32	0.2400482
147	0xbec36482	-0.3816262
148	0xbd865830	-0.06559789
149	0xbe3ab043	-0.18231301
150	0x3e9aa65d	0.3020505
151	0x3e3c04dd	0.1836123
152	0xbe871d7f	-0.2638969
153	0xbdd30004	-0.10302737
154	0x3e55186a	0.20810094
155	0x3e48e799	0.19619597
156	0xbe076d63	-0.13225321
157	0x3ebbbcb3	0.36667404
158	0xbeaa5f97	-0.33276054
159	0x3d5b1429	0.053486023
160	0xbe2eae54	-0.17058688
161	0xbdcd4f88	-0.10024935
162	0xbe992258	-0.29909015
163	0xbdf1bd99	-0.11803741
164	0x3d9cf846	0.07664542
165	0xbe0041f8	-0.12525165
166	0xbe0eed72	-0.13957766
167	0x3d91333e	0.07089852
168	0x3d1ab778	0.037772626
169	0x3e2e3a07	0.17014323
170	0xbd2a605f	-0.041595813
171	0x3e986cee	0.29770607
172	0xbe549500	-0.20759964
173	0x3e05de76	0.13073143
174	0xbde313dc	-0.11087772
175	0x3eada58e	0.3391537
176	0x3e202857	0.15640388
177	0xbe54ab62	-0.20768502
178	0xbedbefc8	-0.42956376
179	0x3db81f18	0.08990306
180	0xbdd40900	-0.10353279
181	0x3e108ec3	0.1411696
182	0x3de9b7bc	0.11411998
183	0xbb8fa4e2	-0.0043836692
184	0x3e20455c	0.15651459
185	0xbe8ae68b	-0.27129015
186	0x3e25103b	0.16119473
187	0x3df8e963	0.1215389
188	0x3e840201	0.2578278
189	0xbe438524	-0.19093758
190	0xbe41bef8	-0.18920505
191	0xbda2364e	-0.07920514
192	0xbee3297d	-0.4436759
193	0xbdb0e64f	-0.08637678
194	0xbdbae534	-0.09125748
195	0xbe700c57	-0.23442207
196	0x3d7c3cab	0.061581295
197	0xbc6d1193	-0.014469522
198	0xbec7226f	-0.38893458
199	0xbceda9d2	-0.02901164
200	0x3e2888e1	0.16458465
201	0x3e02f583	0.12788968
202	0x3d7a7a34	0.0611517
203	0xbea03bb2	-0.31295544
204	0x3dbec083	0.093140624
205	0xbec75d5f	-0.38938424
206	0xbe2d02a2	-0.16895536
207	0x3d98a9d3	0.074542664
208	0xbe3be2e7	-0.18348275
209	0xbe37a3da	-0.17933598
210	0x3d48cf63	0.049025904
211	0x3e36155d	0.17781587
212	0x3c1f021c	0.009705093
213	0xbed47f5a	-0.41503412
214	0x3cc4f729	0.024043636
215	0x3d927079	0.07150359
216	0xbebdf25e	-0.37098974
217	0xba31fc60	-0.0006789621
218	0xbe03291f	-0.12808655
219	0x3e4b5bac	0.19859189
220	0xbe1668ec	-0.14688462
221	0x3e6a4ceb	0.22880904
222	0xbe421fae	-0.18957397
223	0xbe1f8f79	-0.15582074
224	0xbe6e63c6	-0.23280248
225	0xbe752e80	-0.2394352
226	0xbebde417	-0.3708808
227	0x3e0b2aa0	0.13590479
228	0x3d022c8f	0.031780776
229	0xbe9d6717	-0.30742714
230	0xbcaed546	-0.021341931
231	0xbb7239c5	-0.0036960703
232	0xbead2d60	-0.3382368
233	0xbe0f5143	-0.13995843
234	0xbdabf5d1	-0.08396495
235	0x3e04c3ca	0.12965313
236	0xbe877aa7	-0.26460764
237	0xbd9bcd90	-0.07607567
238	0x3e5b2817	0.21402012
239	0xbd226b6a	-0.03965322
240	0xbe2b80a3	-0.1674829
241	0xbcdd5e10	-0.027022392
242	0x3dd08068	0.101807415
243	0xbe7ea8f1	-0.24869134
244	0x3dc477a9	0.09593136
245	0x3e209b64	0.15684277
246	0x3e4062d0	0.18787694
247	0xbda0b185	-0.07846359
248	0xbddef751	-0.108870156
249	0x3d8a22ba	0.06744905
250	0x3cf65dfa	0.030074108
251	0xbc5e0ab9	-0.013552361
252	0x3e8170a1	0.25281242
253	0xbe545ecb	-0.20739286
254	0x3e18dc28	0.14927733
255	0xbcd80ff0	-0.026374787

bias f4 [64]
0	0x3de8c86b	0.11366352
1	0x3ddb39ed	0.10704408
2	0xbb0189f3	-0.0019766062
3	0x3e59546d	0.21223612
4	0x3e139bed	0.1441495
5	0x3bcb5484	0.0062051434
6	0x3e571b37	0.21006475
7	0xbe84e127	-0.25953028
8	0x3c63203c	0.013862666
9	0x3e3cb03c	0.18426603
10	0x3e1f6773	0.15566806
11	0xbe3d2563	-0.18471293
12	0x3e306526	0.17226085
13	0x3e551eb1	0.20812489
14	0x3e15ba6d	0.14621897
15	0x3e03eb58	0.12882745
16	0xbe6b8295	-0.22999032
17	0x3e24f495	0.16108926
18	0xbd7c3ff0	-0.061584413
19	0xbdda10ca	-0.106477335
20	0xbe6ee964	-0.23331219
21	0x3e37db8f	0.17954849
22	0xbe8eab40	-0.27865028
23	0xbbab66a6	-0.0052307425
24	0xbe2aa392	-0.1666396
25	0x3e35926a	0.17731634
26	0x3e34e3a5	0.17664964
27	0x3db1494d	0.08656559
28	0x3dc1fbd1	0.09471858
29	0xbe151775	-0.1455973
30	0xbdf20cfd	-0.118188836
31	0xbe13f58a	-0.14449134
32	0xbe467af6	-0.19382843
33	0x3e70911c	0.23492855
34	0x3e37909e	0.17926261
35	0x3e774e19	0.24150886
36	0x3d9604c7	0.0732513
37	0x3e87ad3f	0.26499364
38	0xbd80e562	-0.06293751
39	0xbe278795	-0.16360314
40	0x3e270b76	0.16312966
41	0xbe8ad8af	-0.2711844
42	0x3e871886	0.26385897
43	0xbd213dce	-0.039365582
44	0xbda3183f	-0.07963609
45	0xbdc1e1dd	-0.09466908
46	0xbe57da1f	-0.210793
47	0x3d1f7571	0.03893036
48	0x3e6c80c6	0.23095998
49	0xbd215ca3	-0.039394986
50	0x3e0c89b4	0.13724405
51	0xbe7605d1	-0.24025656
52	0x3e15ace6	0.14616737
53	0x3e8c8254	0.27443182
54	0xbd07d697	-0.033163633
55	0xbe88c75f	-0.26714608
56	0xbe52c937	-0.2058457
57	0x3d28e027	0.041229393
58	0x3dc43b43	0.09581616
59	0xbd1aca92	-0.037790842
60	0x3dbd3409	0.092384405
61	0x3e812bee	0.25228828
62	0xbe11dab0	-0.14243579
63	0xbdb82d0c	-0.08992967

weight f4 [64]
0	0x3f7e8242	0.9941751
1	0x3f68fb56	0.9100851
2	0x3f6ac5cc	0.91708064
3	0x3f813658	1.0094709
4	0x3f868240	1.0508499
5	0x3f7df03e	0.99194705
6	0x3f83206e	1.0244272
7	0x3f87e0da	1.0615494
8	0x3f7917f4	0.97302175
9	0x3f8999df	1.0750083
10	0x3f7c0f71	0.9846106
11	0x3f7a0284	0.9766009
12	0x3f79e0e5	0.97608787
13	0x3f85938b	1.0435652
14	0x3f87679d	1.0578495
15	0x3f8bb0a7	1.0913285
16	0x3f6543a5	0.8955634
17	0x3f7021d1	0.938016
18	0x3f6fae1a	0.9362503
19	0x3f81f36b	1.015241
20	0x3f7089c4	0.93960214
21	0x3f7ea685	0.9947284
22	0x3f866092	1.0498221
23	0x3f7b3155	0.9812215
24	0x3f73d9ea	0.95254385
25	0x3f60f3b0	0.8787184
26	0x3f7f4144	0.9970896
27	0x3f74de09	0.956513
28	0x3f899a53	1.0750221
29	0x3f8c4d1e	1.0961034
30	0x3f6f881e	0.93567073
31	0x3f7ebfb7	0.99511284
32	0x3f9770ab	1.1831259
33	0x3f8bfdd5	1.0936838
34	0x3f887bf9	1.0662833
35	0x3f8be35f	1.0928763
36	0x3f8552f9	1.0415946
37	0x3f764a16	0.96206796
38	0x3f792102	0.9731599
39	0x3f66abbb	0.9010579
40	0x3f63b35a	0.88945544
41	0x3f8ed486	1.1158607
42	0x3f7329d2	0.9498569
43	0x3f7f83ac	0.9981029
44	0x3f7985e1	0.9746991
45	0x3f85365c	1.0407214
46	0x3f55a75f	0.83458513
47	0x3f97017c	1.1797328
48	0x3f79077c	0.97277045
49	0x3f8797d6	1.0593212
50	0x3f87a884	1.0598302
51	0x3f6fef53	0.93724555
52	0x3f6d6412	0.9273082
53	0x3f65e7a5	0.89806587
54	0x3f846c23	1.0345501
55	0x3f8e1280	1.1099396
56	0x3f61859f	0.88094515
57	0x3f72fcfa	0.9491726
58	0x3f845ba2	1.0340464
59	0x3f851b18	1.0398893
60	0x3f78472e	0.9698361
61	0x3f6f12c0	0.93387985
62	0x3f87c0c1	1.0605699
63	0x3f7f4c3e	0.9972571

bias f4 [64]
0	0x3dac2ec3	0.084073566
1	0xbd889741	-0.066694744
2	0xbe0acb1c	-0.13554043
3	0x3cfed06d	0.031105245
4	0xbca1357e	-0.019678827
5	0xbdd84f18	-0.10561961
6	0xbd8bdb8e	-0.06828986
7	0x3d856e3f	0.065151684
8	0xbdb366ad	-0.08759818
9	0x3de71ed9	0.112851806
10	0xbe3a09f3	-0.18167858
11	0x3d5eb9cb	0.054376405
12	0xbe08c967	-0.13358079
13	0x3dda64c7	0.10663753
14	0x3e019cb3	0.12657432
15	0x3dbe878b	0.093031965
16	0xbe1548d7	-0.14578567
17	0x3c65f9fe	0.014036654
18	0xbddc8b08	-0.107687056
19	0x3e02ba00	0.12766266
20	0x3d8e85b7	0.06959098
21	0xbd36b825	-0.044609208
22	0x3d03db85	0.032191772
23	0x3daa8bd5	0.08327452
24	0xbe1bcfc9	-0.15215982
25	0xbd8cdcc5	-0.06878046
26	0x3d5b3ddf	0.0535258
27	0xbd9e7ada	-0.07738276
28	0x3d34a28d	0.044100333
29	0x3e1c95c1	0.15291502
30	0xbccbfdc0	-0.02490127
31	0x3d8f03d9	0.06983156
32	0x3e0755fd	0.13216396
33	0x3d53b9a8	0.051690727
34	0x3dacd897	0.08439749
35	0xbce6e58e	-0.028185632
36	0x3dc28c6b	0.09499439
37	0xbda3420a	-0.0797158
38	0xbc16609f	-0.00917831
39	0x3c9d3688	0.019191042
40	0xbcc48529	-0.023989277
41	0x3d59e606	0.053197883
42	0xbdbf1d98	-0.093318164
43	0xbd2e59c4	-0.042566076
44	0xbd2fd718	-0.04292974
45	0x3c81bb53	0.015836393
46	0xbde383da	-0.11109133
47	0x3e8f763f	0.28019902
48	0xbe2a84a2	-0.16652158
49	0x3d415835	0.04720326
50	0x3dca17cd	0.09867821
51	0xbc69cbcf	-0.014269783
52	0xbd2275aa	-0.039662994
53	0xbe07ee2d	-0.1327445
54	0x3cba6f0b	0.022758028
55	0x3d8c8ded	0.06863008
56	0xbc6a9053	-0.014316636
57	0x3da1692e	0.078813896
58	0x3cc2cebd	0.023780221
59	0xbe1192cb	-0.14216153
60	0x3c9a9048	0.018867627
61	0x3cb56e23	0.022147244
62	0x3c9eb956	0.019375484
63	0x3e203df7	0.15648638

running_mean f4 [64]
0	0x3d7e7018	0.06211862
1	0xbd19bbd6	-0.03753265
2	0xbe844b82	-0.25838858
3	0x3d1bf4c6	0.03807523
4	0x3ea9fd2f	0.33200976
5	0x3e18378f	0.14864944
6	0x3e892ebd	0.2679347
7	0x3ddef437	0.10886424
8	0x3c8f943c	0.017526738
9	0x3e8b8c82	0.27255636
10	0x3c86df5f	0.016463934
11	0xbed2cf62	-0.41173846
12	0x3e0f64a8	0.14003241
13	0x3d1da2ec	0.038485453
14	0x3cb8ae36	0.022544008
15	0x3ea272fb	0.31728348
16	0xbe5eda6c	-0.21763009
17	0x3c03823e	0.008026658
18	0xbea08cd2	-0.31357437
19	0xbe12a21b	-0.14319651
20	0xbf058e18	-0.5216994
21	0xbc62a1a5	-0.013832484
22	0xbe286492	-0.16444615
23	0xbcca4704	-0.024692066
24	0xbf064661	-0.5245114
25	0x3df08981	0.11744977
26	0x3e8cd069	0.27502754
27	0x3ca8b0a0	0.020592034
28	0x3dbcbc71	0.0921563
29	0x3d61c935	0.055123527
30	0xbecbcabc	-0.39803112
31	0xbe497956	-0.19675192
32	0xbe19c620	-0.15016985
33	0x3d803750	0.0626055
34	0x3eb8bc60	0.3608122
35	0x3e1207fc	0.14260858
36	0xbd7a842a	-0.061161198
37	0x3e6fbf4b	0.23412816
38	0xbd9a02d3	-0.0752007
39	0xbec6a161	-0.38794997
40	0x3ee8da3d	0.45479003
41	0xbe46424d	-0.19361229
42	0x3e78844a	0.24269214
43	0xbdff264f	-0.12458479
44	0x3e0b255a	0.13588467
45	0xbe88486c	-0.26617754
46	0xbf1390b6	-0.57642686
47	0xbb8d3b57	-0.0043100524
48	0x3db9c7e0	0.09071326
49	0x3d8060d4	0.062684685
50	0x3e46f6a9	0.19430031
51	0xbe8229d4	-0.25422537
52	0x3df42c80	0.1192255
53	0x3dca093c	0.098650426
54	0xbdedea35	-0.11616937
55	0xbf184724	-0.5948355
56	0xbdc42198	-0.0957672
57	0xbdb74ea4	-0.089505464
58	0xbe86a801	-0.26300052
59	0xbe61cbce	-0.22050402
60	0xbdbb73f6	-0.09152977
61	0x3eaa6a57	0.33284256
62	0xbc650c4b	-0.013979982
63	0x3d9d5158	0.07681531

running_var f4 [64]
0	0x3bc209ac	0.005921563
1	0x3ba94b41	0.0051664417
2	0x3b92f6c1	0.0044849818
3	0x3b8fab83	0.0043844595
4	0x3b90c368	0.0044178255
5	0x3b3b11e0	0.002854459
6	0x3b9d3a1c	0.004798187
7	0x3bb26df5	0.005445237
8	0x3a9ce542	0.001197018
9	0x3bb6bd7e	0.0055767884
10	0x3b23e84c	0.0025010286
11	0x3c0a3ca7	0.008437312
12	0x3b4e5b99	0.0031487702
13	0x3ba38d78	0.0049912296
14	0x3bac0667	0.0052497867
15	0x3ba38af0	0.004990928
16	0x3b79094c	0.0037999926
17	0x3b813e2c	0.003944179
18	0x3b06b5ad	0.0020555065
19	0x3bad082d	0.0052805156
20	0x3bcff079	0.0063458052
21	0x3b09963f	0.0020994095
22	0x3b317a01	0.0027080777
23	0x3b6cdecc	0.003614354
24	0x3c177c6b	0.009245972
25	0x3c1f72f3	0.009731996
26	0x3b4d1441	0.003129259
27	0x3c15adfc	0.009135719
28	0x3bafd73f	0.0053662355
29	0x3b1c827a	0.002388148
30	0x3b5f4930	0.0034070723
31	0x3b5c5fe6	0.0033626496
32	0x3b092b5b	0.0020930383
33	0x3b7ed75a	0.0038885684
34	0x3ba04f28	0.0048922487
35	0x3b38543f	0.0028126386
36	0x3b61e1e2	0.0034466912
37	0x3b97a5dd	0.0046279267
38	0x3b47b532	0.003047299
39	0x3b80d158	0.0039312057
40	0x3b64b3d2	0.003489722
41	0x3b8d7ef4	0.0043181125
42	0x3bd98d0e	0.0066391295
43	0x3bf9d74f	0.0076245437
44	0x3c15f853	0.009153443
45	0x3b8a9380	0.004229009
46	0x3b910641	0.0044257944
47	0x3b41edd8	0.0029591229
48	0x3b1019b6	0.002198798
49	0x3bcb3bd7	0.006202202
50	0x3bf7dda3	0.007564263
51	0x3b880844	0.004151376
52	0x3b29d192	0.0025912267
53	0x3b816a57	0.0039494443
54	0x3b45e7a4	0.0030197883
55	0x3b92fb32	0.004485511
56	0x3bd3f71b	0.0064686663
57	0x3b52bbc5	0.0032155376
58	0x3b2bfa86	0.0026241853
59	0x3b497d64	0.0030744905
60	0x3b1a572c	0.0023550494
61	0x3bfe2807	0.0077562365
62	0x3b7e8dfa	0.003884195
63	0x3b4699e1	0.0030304121

weight f4 [64, 64]
0	0xbe2e7e75	-0.17040427
1	0xbc3808eb	-0.011232595
2	0x3dc88cc0	0.09792471
3	0xbc2388b3	-0.009981322
4	0x3da50fbb	0.08059641
5	0xbc45a3ec	-0.012063008
6	0x3e1143c8	0.14186013
7	0xbdc46078	-0.095887125
8	0xbe5c0d95	-0.21489556
9	0xbd9103bd	-0.07080791
10	0xbd9b69ec	-0.07588562
11	0xbdb7f54a	-0.08982332
12	0xbd329429	-0.043598328
13	0xbe5919bc	-0.21201223
14	0x3b96472a	0.00458612
15	0xbde5236f	-0.11188399
16	0x3d586a70	0.05283588
17	0xbd3751ad	-0.044755626
18	0xbdc1b92d	-0.094591476
19	0xbd8b2563	-0.0679424
20	0xbdfba3fa	-0.122871354
21	0xbc0c49a8	-0.008562483
22	0xbd25532b	-0.04036252
23	0x3d1b0060	0.037842155
24	0x3c6535d0	0.013989881
25	0xbe276944	-0.1634875
26	0xbda27cd9	-0.07933969
27	0x3e0af1e8	0.13568842
28	0xbd962abb	-0.07332369
29	0xbe168a22	-0.14701131
30	0x3dbcc9cf	0.092181794
31	0xbe05e3ce	-0.13075182
32	0xbe46b6ed	-0.19405718
33	0x3e01d2b0	0.12678027
34	0x3c1f38f2	0.009718167
35	0x3c54ff3a	0.013000304
36	0x3e005980	0.12534142
37	0xbe1e09ea	-0.1543347
38	0x3d0b96fb	0.034079533
39	0xbe0cff84	-0.13769346
40	0xbdcdd464	-0.10050276
41	0xbea15025	-0.31506458
42	0xbcbd5061	-0.023109617
43	0x3d34a151	0.044099156
44	0xbd031e82	-0.032011516
45	0x3bc5a7fa	0.0060319873
46	0xbe01216a	-0.12610403
47	0x3c43ce5e	0.011951057
48	0x3defafc7	0.11703449
49	0xbe1a22e1	-0.15052368
50	0xbe331109	-0.17486967
51	0x3d3ea82c	0.0465471
52	0x3de95990	0.11394036
53	0xbe0d59bf	-0.13803767
54	0xbe554b80	-0.20829582
55	0xbe11d897	-0.14242779
56	0x3c153b64	0.009108398
57	0x3d39d542	0.045369394
58	0xbd8dd6b4	-0.06925717
59	0xbd4e9367	-0.050433543
60	0x3b2843ac	0.0025675101
61	0xbc895c8c	-0.016767763
62	0x3dc16e95	0.0944492
63	0x3d115718	0.03548345
64	0xbc3029eb	-0.0107521815
65	0xbd4626e9	-0.04837695
66	0x3de3ebfe	0.11128996
67	0x3e1bb00d	0.15203877
68	0x3d98aa0f	0.07454311
69	0x3dd17e45	0.10229162
70	0x3d3e03c7	0.04639032
71	0xbe14318a	-0.14472023
72	0x3b2f17a8	0.002671698
73	0xbce36ca0	-0.027761757
74	0x3dda9088	0.106720984
75	0xbd5f89b4	-0.054574683
76	0x3d061047	0.032730367
77	0x3de559f0	0.11198795
78	0xbdab1b2c	-0.08354792
79	0x3e018c74	0.12651235
80	0xba964546	-0.0011464737
81	0x3ca60f9f	0.02027112
82	0xbdc58c05	-0.09645847
83	0x3c3908b0	0.011293575
84	0xbdceb6d6	-0.10093467
85	0xba2ca660	-0.0006586071
86	0xbdce29ec	-0.1006659
87	0xbd708183	-0.058717262
88	0xbd4a5c97	-0.049404707
89	0x3c4653c0	0.0121049285
90	0x3e24ba73	0.1608675
91	0x3d58e217	0.05294999
92	0xbbdcf781	-0.006743372
93	0xbe06c096	-0.13159403
94	0xbd05ae26	-0.032636784
95	0x3d49bbbb	0.0492513
96	0xbcc8fc32	-0.024534319
97	0xbd187ef4	-0.037230447
98	0xbe212f14	-0.15740615
99	0x3ce9a2bf	0.028519986
100	0x3df13e4d	0.11779461
101	0xbbd48d78	-0.006486591
102	0xbccee646	-0.025256287
103	0xbe39da0f	-0.18149589
104	0x3da0f5b7	0.078593664
105	0xbd2b73b8	-0.041858405
106	0x3ca1c966	0.019749355
107	0xbd3af029	-0.04563919
108	0xbdb792af	-0.089635246
109	0xbe2f331b	-0.17109339
110	0x3d1cb5f1	0.03825945
111	0xbdcdf5d5	-0.10056654
112	0x3dde1477	0.10843747
113	0xbe2b1e2b	-0.16710727
114	0xbd2aeb3e	-0.04172825
115	0x3c95de2e	0.01829442
116	0x3e3959ca	0.18100658
117	0x3cda6934	0.026661493
118	0xbc7d3d87	-0.015456564
119	0xbe337993	-0.17526846
120	0x3e1e1ecd	0.15441437
121	0x3b8dd660	0.004328534
122	0xbcdd0d69	-0.026983934
123	0x3e49e2e9	0.19715466
124	0xbb8137f0	-0.003943436
125	0x3d8b3e6e	0.06799017
126	0x3d9199cd	0.07109413
127	0x3dc6547c	0.09684083
128	0x3d34d7af	0.044151004
129	0xbd8d204b	-0.06890925
130	0xbe0aea0a	-0.13565841
131	0xbc92bf8e	-0.017913606
132	0xbd752560	-0.059850097
133	0x3df0730b	0.11740693
134	0x3bcbdf36	0.006221677
135	0xbba7bb4f	-0.0051187645
136	0x3c5c0435	0.013428737
137	0x3d268ffd	0.04066466
138	0x3c48be3d	0.012252388
139	0xbe2d4f76	-0.16924843
140	0x3db7d37f	0.089758866
141	0xbe56cdc4	-0.20976931
142	0xbe0298ec	-0.12753648
143	0x3d6320aa	0.055451073
144	0x3d88fc08	0.06688696
145	0xbc5d14bc	-0.013493713
146	0xbc171dd1	-0.009223417
147	0x3d153e36	0.036436282
148	0x3cd3219f	0.025772868
149	0xbe15abfc	-0.14616388
150	0xbd5cf67a	-0.053945996
151	0x3cfceced	0.030874694
152	0xbd81b0b6	-0.06332533
153	0xbe0c5c52	-0.13707092
154	0x3df4d1be	0.11954068
155	0xbd6b26d1	-0.057410065
156	0x3db30e09	0.08742911
157	0xbe2e37a0	-0.17013407
158	0xbd1140cb	-0.035462182
159	0xbd1889df	-0.03724086
160	0x3d24133a	0.0400574
161	0xbd24d84b	-0.040245336
162	0x3d1faee6	0.038985156
163	0xbcc518de	-0.02405971
164	0x3ddf1f78	0.10894674
165	0xbe1a4723	-0.15066199
166	0x3e0ed475	0.13948233
167	0x3d1ea92b	0.03873555
168	0xbdacdd86	-0.0844069
169	0xbe6542d1	-0.2238877
170	0xbda9b179	-0.08285803
171	0x3debc4f9	0.11512179
172	0x3c8d5fbb	0.017257562
173	0xbdb37602	-0.087627426
174	0xbe1905f4	-0.14943677
175	0xbe759822	-0.23983815
176	0xbd1d80c0	-0.038452864
177	0xbe22b520	-0.15889406
178	0x3debb23a	0.115086034
179	0xbe22dcb5	-0.15904506
180	0x3e260b05	0.16215141
181	0xbd77e1b1	-0.06051797
182	0x3cb3e373	0.021959042
183	0xbdb6083e	-0.08888291
184	0xbd337253	-0.0438102
185	0xbd76bd8a	-0.060239352
186	0xbd223c97	-0.039608564
187	0xbda07494	-0.078347355
188	0xbd80389c	-0.062607974
189	0x3c836d49	0.016043322
190	0xbde86a62	-0.11348416
191	0x3e2ec48d	0.17067166
192	0xbe4bab3d	-0.19889541
193	0xbd5db859	-0.054130886
194	0xbe5b8c16	-0.21440157
195	0xbe5e4c22	-0.2170873
196	0xbe5a0f44	-0.21294886
197	0xbd67367b	-0.05644844
198	0xbd443cce	-0.04790955
199	0xbe588d6d	-0.211477
200	0x3d9ba951	0.07600654
201	0xbe402762	-0.18765023
202	0xbcf057bf	-0.029338716
203	0x3c676f04	0.014125589
204	0x3dd4ed7f	0.10396861
205	0xbe8f05e3	-0.2793418
206	0xbded4d1e	-0.115869746
207	0x3e3aec6a	0.18254247
208	0xbcb8f89b	-0.022579482
209	0x3d5d0f59	0.053969715
210	0x3c86b035	0.016441444
211	0xbd070398	-0.03296241
212	0xbdc82380	-0.09772396
213	0xbe18c638	-0.14919364
214	0xbd8ef016	-0.069793865
215	0xbdcba60c	-0.0994378
216	0x3ce7c184	0.028290518
217	0xbdd56b4a	-0.104208544
218	0x3c32a6b3	0.010904002
219	0x3c15553f	0.0091145625
220	0x3d22266e	0.03958743
221	0xbe43a750	-0.19106793
222	0x3d923fa5	0.071410455
223	0xbc2f8aef	-0.010714277
224	0xbdf538aa	-0.119736984
225	0xbe6f6a8f	-0.23380493
226	0xbc0f8830	-0.008760497
227	0xbe1186b0	-0.14211535
228	0x3dad83be	0.084723935
229	0x3cc27655	0.023738066
230	0x3e0289b9	0.1274785
231	0xbe404f6e	-0.187803
232	0x3bd93eef	0.0066298167
233	0xbe6fee5e	-0.23430774
234	0xbdd490cd	-0.10379181
235	0xbd9873ab	-0.07443937
236	0x3cdd3f54	0.027007736
237	0xba2859ef	-0.00064220926
238	0xbd97d8aa	-0.07414372
239	0xbe62592b	-0.22104327
240	0xbd9eb59c	-0.07749483
241	0xbdb66f7f	-0.08907985
242	0x3dcf937d	0.10135553
243	0xbdc28098	-0.094971836
244	0x3d88ea60	0.066853285
245	0xbe2f6399	-0.17127837
246	0xbe35cd4e	-0.17754099
247	0x3c2beb33	0.010493088
248	0xbbf40aa5	-0.007447558
249	0xbe14ee3c	-0.14544004
250	0x3d6d4ebc	0.057936415
251	0xbe17b701	-0.14815904
252	0xbe2279f8	-0.1586684
253	0x3d3dd7c3	0.046348345
254	0x3d277833	0.040886115
255	0xbdf7203f	-0.12066697

bias f4 [64]
0	0xbe27b7db	-0.16378729
1	0xbdcbe770	-0.099562526
2	0x3d1a97b4	0.03774233
3	0xbc60aa41	-0.013712467
4	0x3ddde6c9	0.108350344
5	0xbd8c279a	-0.06843491
6	0xbd65e9ad	-0.056131054
7	0xbdd39800	-0.10331726
8	0x3dca7256	0.09885089
9	0x3e8c5325	0.27407184
10	0x3d6d86ab	0.057989758
11	0xbd941dbe	-0.07232235
12	0xbe0e8769	-0.13918842
13	0x3d8a52c6	0.06754069
14	0xbe37d07d	-0.17950626
15	0x3e1bda21	0.15219928
16	0xbd83d483	-0.06437018
17	0xbd3b0de3	-0.04566754
18	0xbe074365	-0.13209303
19	0xbcb27485	-0.021784076
20	0x3dcfdebd	0.10149906
21	0xbdb7e936	-0.08980028
22	0xbc9f0f80	-0.01941657
23	0x3e2e1e40	0.17003727
24	0xbd391656	-0.045187317
25	0x3d417d65	0.047238726
26	0x3e51079b	0.20413058
27	0x3c813b52	0.015775356
28	0xbda857d6	-0.082198784
29	0x3e16fc06	0.14744577
30	0xbd9f7ab9	-0.07787079
31	0x3e606af3	0.21915798
32	0xbd2677d5	-0.040641624
33	0x3da336ff	0.07969474
34	0xbd2329e3	-0.03983487
35	0x3e7e56d1	0.24837805
36	0x3daf8b95	0.08571545
37	0x3c0d8681	0.008638025
38	0xbca0c4ca	-0.019625086
39	0x3d0ee4d5	0.0348862
40	0x3e43760f	0.19088005
41	0xbdbab4d5	-0.09116522
42	0x3d836c6d	0.06417165
43	0xbe69d0b5	-0.22833522
44	0xbe5d66ad	-0.21621199
45	0xbdad02a3	-0.084477685
46	0xbe308282	-0.17237285
47	0x3b5c1cd0	0.003358651
48	0x3d2ef419	0.04271326
49	0x3d0e08fc	0.034676537
50	0x3c0018cf	0.007818415
51	0xbe7a7c05	-0.24461372
52	0x3d5e364b	0.054250997
53	0xbe037910	-0.1283915
54	0x3cc9ab00	0.024617672
55	0x3e37e20e	0.17957327
56	0x3c5da21e	0.013527421
57	0xbda8178f	-0.082076184
58	0x3d0082ad	0.031374622
59	0xbcc0903a	-0.023506273
60	0x3d390a07	0.04517558
61	0xbd260ef8	-0.04054162
62	0x3ca712a5	0.020394633
63	0xbe17115f	-0.1475272

weight f4 [64]
0	0x3faf554d	1.3697907
1	0x3f964c00	1.1741943
2	0x3fa16e30	1.2611752
3	0x3fb72941	1.4309465
4	0x3f8dc569	1.107587
5	0x3f945f3c	1.1591563
6	0x3f95837e	1.1680753
7	0x3f95d26f	1.1704844
8	0x3f8b5c20	1.0887489
9	0x3f893cde	1.07217
10	0x3f985421	1.1900674
11	0x3f934360	1.1504936
12	0x3f757f10	0.95897007
13	0x3f96f729	1.1794177
14	0x3f890c12	1.0706809
15	0x3f8f04ac	1.1173301
16	0x3fa3ecbc	1.2806621
17	0x3fa1a4d3	1.2628425
18	0x3f861bb8	1.0477209
19	0x3f9b7e96	1.2148006
20	0x3f915c60	1.1356316
21	0x3f9b9e52	1.215769
22	0x3f8b4998	1.0881834
23	0x3f8b7aea	1.0896885
24	0x3fa4dd79	1.2880088
25	0x3f8e16d0	1.1100712
26	0x3f791346	0.97295034
27	0x3f8d6f98	1.1049681
28	0x3f80adeb	1.0053076
29	0x3f81c439	1.0138007
30	0x3fb6c4d8	1.4278822
31	0x3f89ed18	1.077548
32	0x3f70ad36	0.940143
33	0x3f8aaa01	1.0833131
34	0x3f81e9d3	1.0149482
35	0x3f87b041	1.0600663
36	0x3fad576d	1.3542305
37	0x3f7d89a4	0.9903815
38	0x3f98badc	1.1932025
39	0x3f9177b6	1.1364658
40	0x3f930bbe	1.1487958
41	0x3f819c91	1.0125905
42	0x3f8b2be1	1.0872766
43	0x3f9bff2e	1.218725
44	0x3f8ff5a0	1.1246834
45	0x3f85611d	1.0420262
46	0x3fa37e01	1.2772828
47	0x3f9080c3	1.1289295
48	0x3f864894	1.0490899
49	0x3f9c27b8	1.2199621
50	0x3f78a4ba	0.9712635
51	0x3fae28f2	1.3606246
52	0x3fa81bbd	1.3133465
53	0x3fa39c18	1.2782011
54	0x3f8c4913	1.09598
55	0x3f8169ba	1.011039
56	0x3fa4d022	1.2876017
57	0x3f928237	1.1445988
58	0x3f75e99d	0.9605959
59	0x3f980eac	1.1879478
60	0x3faf7513	1.3707603
61	0x3f9e6ae5	1.2376372
62	0x3f7f840b	0.99810857
63	0x3f901bd5	1.1258494

bias f4 [64]
0	0x3cb32e4e	0.021872666
1	0x3d3318ce	0.043724827
2	0xbdba9aeb	-0.091115795
3	0xbeeac502	-0.4585343
4	0x3e3a55bb	0.18196766
5	0x3da248ed	0.07924066
6	0xbe8e13aa	-0.27749377
7	0xbef6a9ea	-0.4817651
8	0x3cf8caee	0.030370202
9	0x3e7b3037	0.24530111
10	0x3dd39fb4	0.10333195
11	0xbeb570cb	-0.35437617
12	0x3e4f2e57	0.20232521
13	0xbe4253e8	-0.1897732
14	0xbea73e28	-0.3266461
15	0xbee1dd40	-0.44114113
16	0xbe86851a	-0.26273423
17	0xbeaa75f8	-0.33293128
18	0x3e129284	0.14313704
19	0xbda5f1fd	-0.08102796
20	0xbdb2346e	-0.087014064
21	0xbe5cd8ba	-0.2156705
22	0x3e386308	0.18006527
23	0x3e7be8bb	0.24600498
24	0xbd282fb3	-0.041061115
25	0x3e1a968c	0.15096492
26	0x3e64a11f	0.22327088
27	0xbe852038	-0.26001143
28	0xbe8b924e	-0.2726006
29	0x3e5b7867	0.21432649
30	0xbe3b576a	-0.18295065
31	0x3e68fba7	0.22752248
32	0x3e4d6f5f	0.20062016
33	0xbedadc17	-0.4274604
34	0x3e764a69	0.24051823
35	0x3e5f6743	0.21816735
36	0xbf28b58f	-0.65902036
37	0x3e1706a7	0.14748631
38	0xbeba37ab	-0.36370596
39	0x3eb88671	0.3604007
40	0xbda96824	-0.082718164
41	0x3ea97ff7	0.33105442
42	0xbe989aab	-0.29805502
43	0xbe94b3e2	-0.2904349
44	0x3e309a35	0.17246325
45	0x3eb367a5	0.35040012
46	0xbec5407d	-0.38525763
47	0xbe2b92fc	-0.16755289
48	0xbeacd59d	-0.33756724
49	0xbe88ae6e	-0.2669558
50	0x3eb0a953	0.34504184
51	0xbec60a50	-0.38679743
52	0xbea2a7d7	-0.31768677
53	0xbe979ceb	-0.29611906
54	0x3e51a86f	0.20474409
55	0x3e6f6ae1	0.23380615
56	0xbe987efd	-0.29784384
57	0x3d96cf08	0.07363707
58	0x3e6f766a	0.23385015
59	0xbeb68e69	-0.35655525
60	0xbea19683	-0.31560144
61	0xbe9f45b7	-0.31107876
62	0x3e5c0137	0.21484838
63	0xbe8a0afc	-0.26961505

running_mean f4 [64]
0	0x3d03c2af	0.032168087
1	0x3e851828	0.25994992
2	0x3d96413b	0.073366605
3	0x3c6f5ab9	0.014609032
4	0x3f0b82a7	0.54496235
5	0x3f23d8f8	0.64002943
6	0x3e3d63e7	0.18495141
7	0x3d93eed6	0.07223289
8	0x3f1d81e4	0.6152632
9	0x3f870a6c	1.0550056
10	0x3d29b6c2	0.041434057
11	0x3ec12992	0.37727028
12	0x3e632ad2	0.22184303
13	0x3f1d8cca	0.6154295
14	0x3cbe7b5c	0.023252182
15	0x3f2e7abb	0.6815602
16	0x3d471ede	0.04861342
17	0x3e0789bc	0.13236135
18	0x3f0b2ede	0.5436839
19	0x3e034f3d	0.12823196
20	0x3e9cb547	0.30607054
21	0x3ee2fc9c	0.4433335
22	0x3f56e261	0.83939177
23	0x3f8822ac	1.0635581
24	0x3d2a24ee	0.041539125
25	0x3ed6d0ed	0.41956273
26	0x3fc18d40	1.5121231
27	0x3f916347	1.1358422
28	0x3ed3c510	0.41361284
29	0x3f1a9e89	0.60398155
30	0x3be9f492	0.0071397508
31	0x3f94626c	1.1592536
32	0x3f557250	0.8337755
33	0x3ecaade8	0.39585805
34	0x3ef6da0b	0.4821323
35	0x3f943c4e	1.1580904
36	0x3dd4b32a	0.10385735
37	0x3f3a60ec	0.7280414
38	0x3e18ccc5	0.14921863
39	0x3d5849d3	0.05280478
40	0x3f33d4a2	0.70246327
41	0x3e17f088	0.14837849
42	0x3f93cce3	1.1546901
43	0x3dd286fc	0.102796525
44	0x3cd1677f	0.025562046
45	0x3d9e30ee	0.07724176
46	0x3c9aa3d2	0.018876944
47	0x3f303bc0	0.6884117
48	0x3f940f85	1.1567236
49	0x3ef97bf5	0.48727384
50	0x3e8b4060	0.27197552
51	0x3d422277	0.04739615
52	0x3d846878	0.06465238
53	0x3d1e6d31	0.03867835
54	0x3f512ceb	0.81709164
55	0x3f3d961f	0.7405719
56	0x3d2b72d5	0.04185756
57	0x3efdf8a4	0.4960376
58	0x3f84fa8c	1.0388961
59	0x3ed8ed0e	0.42368358
60	0x3dc2f979	0.095202394
61	0x3e69c310	0.22828317
62	0x3fb0f20a	1.3823864
63	0x3ec972c2	0.39345366

running_var f4 [64]
0	0x3c5efc5c	0.013609972
1	0x3e09ecc5	0.13469227
2	0x3d08c25b	0.033388477
3	0x3bba3736	0.005682851
4	0x3ec534d5	0.3851687
5	0x3f20bb26	0.62785566
6	0x3e06d2a3	0.13166289
7	0x3d7e362d	0.062063385
8	0x3f6a5465	0.91535026
9	0x3f152d80	0.5827255
10	0x3c9f1448	0.01941885
11	0x3e6c5a4c	0.2308132
12	0x3ddb2aeb	0.10701545
13	0x3eb06227	0.34449884
14	0x3c45cc6c	0.012072664
15	0x3f279211	0.65457255
16	0x3c7c612f	0.01540403
17	0x3d977327	0.073950104
18	0x3e7b1dee	0.24523136
19	0x3d063c46	0.032772325
20	0x3e1913fc	0.1494903
21	0x3e833c7c	0.25632083
22	0x3ebaa6f3	0.36455497
23	0x3efcc30e	0.49367565
24	0x3caa410d	0.020782972
25	0x3e352fed	0.17694063
26	0x3f438968	0.7638154
27	0x3ee2f968	0.44330907
28	0x3ed22911	0.41046956
29	0x3ec3490f	0.38141677
30	0x3b032cf6	0.0020015812
31	0x3ef99af3	0.4875103
32	0x3f49aafd	0.7877653
33	0x3e3af120	0.18256044
34	0x3e900ad7	0.2813327
35	0x3efbe00a	0.49194366
36	0x3d64ac77	0.055828538
37	0x3efe6c57	0.49692032
38	0x3dd61287	0.104527526
39	0x3ce09e14	0.027419128
40	0x3f0cbcc7	0.5497555
41	0x3df15592	0.11783899
42	0x3f167e39	0.5878635
43	0x3d8ea9c0	0.06965971
44	0x3c3e9b7f	0.011633753
45	0x3d364edd	0.044508804
46	0x3c04e60f	0.008111491
47	0x3f30dda4	0.69088197
48	0x3f052fbb	0.52025956
49	0x3ea5aabe	0.32356828
50	0x3e55aa56	0.20865759
51	0x3c9d9516	0.019236129
52	0x3ce460b5	0.027878145
53	0x3c81669c	0.015795998
54	0x3ec9d94a	0.3942359
55	0x3eb356ad	0.35027066
56	0x3cac6fa9	0.021049337
57	0x3e7cae69	0.24675907
58	0x3f43924e	0.7639512
59	0x3ec99e89	0.39378765
60	0x3d8b83b2	0.06812228
61	0x3de511cc	0.11185035
62	0x3f573333	0.840625
63	0x3e9fad77	0.3118703

weight f4 [4, 64]
0	0xbd01cb8f	-0.03168827
1	0xbddc98cf	-0.107713334
2	0xbd58168a	-0.05275587
3	0x3e7cdd84	0.24693877
4	0x3dddf45a	0.10837622
5	0xbdeb46e8	-0.11488134
6	0x3e70e324	0.23524147
7	0x3e709910	0.23495889
8	0xbd8f050d	-0.06983385
9	0xbd89b723	-0.06724384
10	0x3df298dd	0.118455626
11	0x3d769153	0.060197186
12	0xbe38ab34	-0.18034059
13	0x3e751ecc	0.2393753
14	0x3e0f2cf6	0.13981995
15	0x3ea44beb	0.3208917
16	0x3d141a1c	0.036157712
17	0x3e86bd0f	0.26316115
18	0x3ca10097	0.019653602
19	0x3e615a32	0.22007063
20	0x3e03ddd4	0.1287759
21	0x3e89f686	0.26945895
22	0xbda3f9c7	-0.080066256
23	0xbda64c98	-0.08120078
24	0x3d7de698	0.06198749
25	0xbe1c4eed	-0.15264483
26	0xbe02fec1	-0.12792493
27	0x3e6a8d12	0.22905377
28	0x3e09a034	0.13440019
29	0xbdd9afe1	-0.10629249
30	0xbd027d1f	-0.031857606
31	0xbdbe82a7	-0.09302264
32	0xbd900a3e	-0.070332035
33	0x3e965236	0.29359597
34	0xbdb72bb1	-0.0894388
35	0xbd0e1953	-0.03469212
36	0x3ed9fd8f	0.42576262
37	0xbd3eb549	-0.046559606
38	0x3e22f562	0.15913919
39	0xbe43b4c0	-0.1911192
40	0x3e44ef9f	0.19232033
41	0xbe5b546f	-0.21418928
42	0x3e8efcd2	0.27927262
43	0x3e846ecc	0.2586578
44	0xbe336c3e	-0.1752176
45	0xbd9e6f85	-0.077361144
46	0x3e8ace6a	0.27110606
47	0x3e6d6f55	0.23187001
48	0x3e58ab1e	0.21159026
49	0x3ea519fa	0.3224638
50	0xbe577968	-0.21042407
51	0x3e697136	0.22797093
52	0x3e07b5b9	0.13252915
53	0x3e7276ef	0.23678182
54	0xbbd4eea4	-0.0064981747
55	0xbe021a71	-0.12705399
56	0x3e82dd16	0.255593
57	0xbd9aa770	-0.075514674
58	0xbe43f6e5	-0.19137152
59	0x3e459a21	0.19297077
60	0x3e961c0f	0.29318282
61	0x3e5a8068	0.21338046
62	0xbdf24c36	-0.11830942
63	0x3e3e4538	0.18581092
64	0x3e95fdec	0.2929529
65	0x3e83a13a	0.25708944
66	0x3dc2f8af	0.09520089
67	0x3e75b0d7	0.2399324
68	0xbe591892	-0.21200779
69	0x3e66c017	0.22534214
70	0x3c924fdc	0.017860346
71	0x3d867452	0.06565155
72	0x3e3e9591	0.18611743
73	0xbde4624a	-0.1115156
74	0xbe3a2add	-0.18180414
75	0x3dd7ad5c	0.105311126
76	0xbc9dba96	-0.01925401
77	0xbe88a5d8	-0.2668903
78	0xbd6fac23	-0.05851377
79	0xbe0e2b78	-0.1388377
80	0x3e997e4a	0.29979163
81	0x3e8f6296	0.28004903
82	0xbe283dd1	-0.16429831
83	0xbe7d1762	-0.24715951
84	0xbe6ae4d4	-0.22938854
85	0xbe39f983	-0.18161587
86	0xbe5d2338	-0.21595466
87	0xbe00d0ef	-0.12579702
88	0x3e5a4d93	0.21318655
89	0x3e0b9cfe	0.13634107
90	0x3b2c638b	0.002630445
91	0x3d359e7e	0.044340603
92	0x3d9fd568	0.07804376
93	0xbd89a110	-0.06720173
94	0x3e67fc63	0.22654872
95	0xbdf31def	-0.11870944
96	0xbce9d57c	-0.02854418
97	0xbdede4c3	-0.116158985
98	0xbd1decb6	-0.038555823
99	0xbdb7c23f	-0.089725964
100	0xbd847e27	-0.06469374
101	0x3e11529d	0.1419167
102	0x3e34a040	0.17639256
103	0xbd9f950a	-0.07792099
104	0xbe58d34a	-0.2117435
105	0x3acd72ee	0.001567451
106	0x3da791e1	0.08182121
107	0x3e4af722	0.19820836
108	0x3e3fcb49	0.18729891
109	0xbc93a628	-0.018023565
110	0x3e280da1	0.16411449
111	0xbe2aeb37	-0.1669129
112	0x3d004d73	0.03132386
113	0xbe47e770	-0.1952188
114	0x3d014c93	0.031567167
115	0x3d64abd3	0.055827927
116	0x3e704234	0.23462754
117	0x3e83cb75	0.25741163
118	0xbe39cafe	-0.18143842
119	0xbcc27ac9	-0.02374019
120	0x3e5949b1	0.21219517
121	0x3e6631b1	0.22479893
122	0xbcd94e90	-0.02652672
123	0x3e21ed5b	0.158132
124	0x3e9df04a	0.30847389
125	0xbe3620cb	-0.17785947
126	0xbd050b64	-0.032481566
127	0xbe368a26	-0.17826137
128	0xbe833af2	-0.2563091
129	0xbdf58707	-0.11988645
130	0xbe62bc25	-0.22142084
131	0xbe903ae2	-0.28169924
132	0x3e330872	0.1748369
133	0xbd4310c4	-0.04762341
134	0xbe9598b7	-0.29218075
135	0xbe553d07	-0.20824061
136	0xbd40f43f	-0.04710793
137	0x3db4c0fd	0.08825872
138	0x3e69bedf	0.22826718
139	0xbe7bad73	-0.24577884
140	0x3dd18c20	0.10231805
141	0xbcac0cc4	-0.02100218
142	0xbe6f61cc	-0.2337715
143	0xbd62f04f	-0.055404957
144	0xbebc7faf	-0.36816165
145	0xbe9d59ac	-0.30732477
146	0x3e377bc1	0.17918302
147	0x3e2e8bf5	0.17045577
148	0x3ddb72e5	0.10715274
149	0x3dfd5fa6	0.12371759
150	0x3e551a48	0.20810807
151	0x3e38d77d	0.18050952
152	0xbe619ed8	-0.2203325
153	0xbd294ca2	-0.04133285
154	0x3e28f5d7	0.1650003
155	0xbe6ebe7e	-0.23314855
156	0xbe27ab39	-0.1637391
157	0x3e3f6440	0.18690586
158	0xbeafd8da	-0.34345132
159	0x3e1dc2d6	0.15406355
160	0x3d4e74fe	0.05040454
161	0xbe25159d	-0.16121526
162	0x3e30ad73	0.17253666
163	0x3e4f706b	0.20257728
164	0x3c31b78b	0.010846983
165	0x3d819fc0	0.06329298
166	0xbe899d13	-0.2687765
167	0x3e5bbf16	0.21459612
168	0x3e0f1b57	0.13975273
169	0x3e0d3d91	0.13793017
170	0xbe029507	-0.12752162
171	0xbea14a18	-0.31501842
172	0xbd07d9eb	-0.033166807
173	0x3e2a11cc	0.16608351
174	0xbe94e152	-0.29078156
175	0x3d237292	0.039904185
176	0xbe0e09f9	-0.13870992
177	0xbda82bb5	-0.082114615
178	0x3dec07af	0.11524903
179	0xbebb4d61	-0.36582473
180	0xbebfb7e8	-0.37444997
181	0xbea95d47	-0.33078977
182	0x3e591024	0.21197563
183	0x3e40e5aa	0.1883761
184	0xbeb3810a	-0.35059386
185	0xbdb9e6f6	-0.090772554
186	0x3ddb3460	0.10703349
187	0xbe8ea1d8	-0.27857852
188	0xbecd6fcb	-0.40124354
189	0x3c9f2ebe	0.019431468
190	0x3e3670ef	0.17816518
191	0xbdbb2b3c	-0.09139106
192	0xbd75a0bf	-0.059967753
193	0xbdb7b1ba	-0.089694455
194	0xbcd61b66	-0.026136111
195	0x3e86d0a9	0.2633107
196	0xbde1e2ed	-0.11029611
197	0xbdc958d3	-0.09831395
198	0x3e24bc7d	0.16087528
199	0x3e5c827c	0.21534151
200	0xbd3d8335	-0.046267707
201	0xbd6eeb87	-0.058330085
202	0xbb068431	-0.002052557
203	0x3e88e5e8	0.26737905
204	0xbe291e32	-0.16515425
205	0x3e24e8e3	0.16104464
206	0x3dde70d2	0.108613625
207	0x3dff8705	0.12476925
208	0x3ddc3831	0.10752905
209	0x3e20494c	0.1565296
210	0x3a95bb29	0.0011423576
211	0x3e480be4	0.19535786
212	0x3e7e1768	0.24813616
213	0x3eb22c8f	0.3479962
214	0x3ce90b5f	0.028447805
215	0xbd1b300a	-0.03788761
216	0xbc617ec6	-0.013763135
217	0xbe615899	-0.22006454
218	0xbe12a765	-0.14321668
219	0x3e668472	0.22511461
220	0x3e29391c	0.16525692
221	0xbd696334	-0.056979373
222	0x3da5016e	0.08056913
223	0xbceb8580	-0.028750181
224	0xbe0e11df	-0.13874005
225	0x3e0636ee	0.13106892
226	0xbe12eedb	-0.14348929
227	0xbde2f8d8	-0.110826194
228	0x3edd63a3	0.4324008
229	0xbe19c0e3	-0.15014987
230	0x3df49a2c	0.119434685
231	0xbe0fda45	-0.14048107
232	0x3dfbd485	0.12296394
233	0xbe1b016f	-0.15137266
234	0x3e657ef9	0.22411717
235	0x3ea11dd2	0.31468064
236	0xbdf713b4	-0.12064305
237	0xbe4f3c74	-0.20237905
238	0x3e494cba	0.19658175
239	0x3d77cead	0.060499836
240	0x3e4a9083	0.1978169
241	0x3e6819d1	0.22666098
242	0x3d460626	0.048345707
243	0x3e7c170f	0.24618171
244	0x3e0ec541	0.13942434
245	0x3df83e54	0.12121263
246	0xbdb1ac02	-0.08675386
247	0xbd62986f	-0.055321153
248	0x3e894f67	0.26818392
249	0xbe2510eb	-0.16119735
250	0xbe28c5c9	-0.16481699
251	0x3e346e3e	0.17620179
252	0x3e499325	0.19685037
253	0x3e9c6cff	0.30551907
254	0xbe33326b	-0.17499702
255	0x3e9163f3	0.28396568

bias f4 [4]
0	0xbe512a27	-0.20426236
1	0x3ca22596	0.019793313
2	0x3de790a5	0.11306886
3	0xbe167986	-0.14694795
